…
   "execution_count": 29,
   "metadata": {
    "collapsed": true
   },
   "outputs": [],
   "source": [
    "model.add(Dense(1,activation='sigmoid'))"
   ]
  },
  {
   "cell_type": "code",
   "execution_count": 30,
   "metadata": {
    "collapsed": false
   },
   "outputs": [
    {
     "name": "stdout",
     "output_type": "stream",
     "text": [
      "_________________________________________________________________\n",
      "Layer (type)                 Output Shape              Param #   \n",
      "=================================================================\n",
      "conv1d_1 (Conv1D)            (None, 13, 78)            156       \n",
      "_________________________________________________________________\n",
      "max_pooling1d_1 (MaxPooling1 (None, 13, 78)            0         \n",
      "_________________________________________________________________\n",
      "conv1d_2 (Conv1D)            (None, 13, 65)            5135      \n",
      "_________________________________________________________________\n",
      "max_pooling1d_2 (MaxPooling1 (None, 13, 65)            0         \n",
      "_________________________________________________________________\n",
      "conv1d_3 (Conv1D)            (None, 13, 52)            3432      \n",
      "_________________________________________________________________\n",
      "max_pooling1d_3 (MaxPooling1 (None, 13, 52)            0         \n",
      "_________________________________________________________________\n",
      "conv1d_4 (Conv1D)            (None, 13, 39)            2067      \n",
      "_________________________________________________________________\n",
      "max_pooling1d_4 (MaxPooling1 (None, 13, 39)            0         \n",
      "_________________________________________________________________\n",
      "conv1d_5 (Conv1D)            (None, 13, 26)            1040      \n",
      "_________________________________________________________________\n",
      "max_pooling1d_5 (MaxPooling1 (None, 13, 26)            0         \n",
      "_________________________________________________________________\n",
      "conv1d_6 (Conv1D)            (None, 13, 13)            351       \n",
      "_________________________________________________________________\n",
      "max_pooling1d_6 (MaxPooling1 (None, 13, 13)            0         \n",
      "_________________________________________________________________\n",
      "flatten_1 (Flatten)          (None, 169)               0         \n",
      "_________________________________________________________________\n",
      "dense_1 (Dense)              (None, 13)                2210      \n",
      "_________________________________________________________________\n",
      "dense_2 (Dense)              (None, 1)                 14        \n",
      "=================================================================\n",
      "Total params: 14,405\n",
      "Trainable params: 14,405\n",
      "Non-trainable params: 0\n",
      "_________________________________________________________________\n"
     ]
    }
   ],
   "source": [
    "model.summary()"
   ]
  },
  {
   "cell_type": "code",
   "execution_count": 31,
   "metadata": {
…
